emb_cls_mia/model_best.pth.tar (torch, 767967 bytes, 30 tensors)

features.0.weight f4 [256, 64]
00000000: aa99 f6bc 1c0f 133e 5f8b e23d 4f26 fbbd
00000010: 942a 8c3e c2a5 17be 4092 9cbd 6afb 38bc
00000020: a31f 8bbd 8df1 da3d 1176 7a3e 0b84 edbd
00000030: a035 3f3d 6f86 45be 5c75 1c3e df82 833d
00000040: 8c88 bfbd 9bfb 5e3d 02e3 fbbd 0bec 98bd
00000050: 52d8 4f3e 3c1c c13d a909 04bd b3fd 83bd
00000060: 6528 253d 155c febd 7261 bdbc f477 e23d
00000070: 0cdd 41bb 6031 e33e 792f fa3d d9ba 503b
00000080: 1158 b6bc 98bc d2bd 22dd f8bd 15bc 53bd
00000090: dc79 373e fcd8 86be d2d0 34bd f51d db3d
000000a0: 85b6 a33e ca40 90be 7a36 1dbd 332a ebbd
000000b0: 4e9d 803d 53c9 663d 26cd 99bd 68af d6bd
000000c0: c8ba 5e39 a107 363e 3b9e 8c3e 96d9 b6bc
000000d0: 9258 df3d 6f44 06be 5983 83bd e2cb babc
000000e0: 7035 b63d 0949 4d3e 04b0 54bd ea4a f83c
000000f0: 6e64 5bbd ca67 18be 7250 cabc ca3f 953d
00000100: 4edd 9c3c 17bd 233d 6689 56bd 0404 39be
00000110: e3a9 08bd 05da b7bd ee3b 0fbd 0780 46be
00000120: 2944 e2bc 451e 20be 0971 97bd d024 22bd
00000130: b3f9 b33d 2435 f0bd 26fc f1bd 0095 9cbd
00000140: 731e 03be e85f 563d 1655 7c3d b1c8 233e
00000150: 5073 03be 61d6 623e 8a88 86bd e7cf 223c
00000160: bf06 31be 92f7 a2bd 06e4 c73a 35f0 a139
00000170: 1d9f d9bb f0db c13d 36f9 04be 93bf e33d
00000180: 048e 94bd 7a5f 00bc bc93 03bd ac8d 73bd
00000190: c16c da3d 16bf 95bd c767 f53c e8f8 0c3e
000001a0: 1eca b83d 23b9 23be 04fc a7bc 5f39 87be
000001b0: 179c ac3c 1e9d 39bd a413 273e 6bed 34be
000001c0: abf0 5fbe 8a3b e43c f306 e73d 7414 9b3e
000001d0: e329 163e bab0 a33e 7d6b 60be 40a1 9c3d
000001e0: 3e10 8cbd 3241 4cbd 4112 063e fb1a 30be
000001f0: f5bf a03b 4656 39be e0b7 1b3e 2ce4 febc
00000200: 522c 9d3e d7f2 47be 4da9 073b 8573 853b
00000210: e35d 83bc d267 273e ad0f 993d e01f 573e
00000220: b015 7abd a9d7 3ebe 880e 4fbd 10a7 16bd
00000230: f0f3 683e 868e 583e fe9d 2c3c 1b9f 183e
00000240: 2168 d53c c11e 9dbe 1034 babd 0095 62bd
00000250: edf0 c93c 3452 cb3c d5f9 be3b 33a8 873d
00000260: e742 db3d 1486 13bd 67e1 aebd 0823 923d
00000270: 6389 413d 673f a5be 98b7 a6bc 163a de3c
00000280: 2a3e 8e3d 711e c0bd 1fbc 19be b794 e7bc
00000290: bb30 b5bd 1932 dc3d b7ff 18be a449 4e3c
000002a0: 734c a63d 8d1b a6ba ddab f3bd 3d2a ad3d
000002b0: b528 183e ef8c 5c3c 85ba d9bd b29d 47be
000002c0: ab21 2ebe 00bd 473e ccb7 3abe 39e1 073d
000002d0: 55b8 0bbe d7af 69bd de00 053d 365d b9bd
000002e0: 8d59 633c 8d47 a93d e7cf 53bd 9858 22be
000002f0: 0edd e0bc 873d 98bd 40e8 65be 75cc cf3d
00000300: 709e c5bc 3978 683d cace 043e 7ea9 ebbd
00000310: a61a 5e3e 07ce 943c f81e 84be c135 1a3d
00000320: 2de7 79be a7f5 c3bd 924d 243e 611e 933d
00000330: 9b30 3e3e 7ca3 e2bc 6c62 523e ad3d 213e
00000340: 3b8f 5bbd b8ae 66be ff12 7ebe e1e1 733e
00000350: 546f 993e 3e78 c33d 104e 18bd 14af 7ebd
00000360: 7d4d 123e c1b2 56be 37a2 37be 7854 ba3b
00000370: 16e1 a1bd 9a08 963e 8297 923b 3f57 f9bc
00000380: 642b b5bd 34cb debc 5e6d 8dbd 1136 eebb
00000390: fc53 fb3d a974 4fbd d4e0 9e3c 1c45 023e
000003a0: 0875 703e 9d22 de3b b535 4bbe e571 123d
000003b0: 373f 00bc 816f c33d 5adb c53c 31ed 853e
000003c0: 98da a4bd d504 2c3e 528b 953d 4b0a a63d
000003d0: ed20 183d d94f 48be dac2 ffbd 3fa5 b0bd
000003e0: 37ae dd3c 812d df3d 1fc2 1d3e 07a1 b6bd
000003f0: 2c79 4ebb f3dc 0dbe 8f73 05be 91a0 37bd
-0.03010257 0.14361233 0.11061739 -0.12263166 0.27376235 -0.14809325 -0.076450825 -0.0112904105
-0.067931436 0.106906034 0.24459101 -0.11597451 0.046682 -0.19289564 0.15279144 0.06421446
-0.09352216 0.05443917 -0.12299158 -0.074668966 0.20297363 0.094292134 -0.032235775 -0.06444874
0.040321726 -0.12419907 -0.023117755 0.110580355 -0.0029581217 0.44373608 0.12216086 0.003184965
-0.02225879 -0.10289878 -0.12151553 -0.05169304 0.1791758 -0.2633742 -0.04414446 0.10699073
0.3197519 -0.2817443 -0.03838203 -0.11482658 0.062800035 0.05634434 -0.07509832 -0.10482675
0.00021241151 0.17776348 0.2746447 -0.02232055 0.10905565 -0.13112043 -0.06421537 -0.022802297
0.08896911 0.20047392 -0.051925674 0.03030916 -0.053562574 -0.14883342 -0.024696562 0.072875574
0.019148495 0.039975252 -0.052377127 -0.18067938 -0.03336514 -0.08977131 -0.034969263 -0.19384776
-0.027620392 -0.15636547 -0.073946066 -0.03958589 0.08787861 -0.11728886 -0.118156716 -0.07645607
-0.12804584 0.052337557 0.06160458 0.15994526 -0.12836957 0.22152092 -0.065690115 0.009937263
-0.1728773 -0.079573765 0.0015250451 0.0003088728 -0.0066412822 0.09465778 -0.12985691 0.11120524
-0.0725365 -0.007835263 -0.032123312 -0.05946128 0.106652744 -0.073118374 0.029956711 0.13766825
0.09022926 -0.15988593 -0.020505913 -0.26410958 0.021070523 -0.045315854 0.16316086 -0.17668693
-0.21869151 0.027860422 0.11280622 0.30289042 0.14664416 0.3197077 -0.21916004 0.076479435
-0.068390355 -0.049866863 0.13092901 -0.17197792 0.0049056956 -0.18099317 0.15206861 -0.03111466
0.30697876 -0.1952623 0.0020700276 0.004072609 -0.01603598 0.16348198 0.07473693 0.21008253
-0.06105584 -0.18636955 -0.050550967 -0.036780417 0.22749305 0.21148118 0.010535715 0.14904444
0.02605063 -0.30687526 -0.090919614 -0.05531788 0.024651015 0.024819471 0.005828122 0.06623878
0.1070612 -0.03601654 -0.08539086 0.07135588 0.047250163 -0.32274935 -0.020351216 0.027127307
0.069454506 -0.09380806 -0.15013169 -0.028269155 -0.08847185 0.10751743 -0.14941297 0.0125907995
0.0812005 -0.0012673006 -0.11898015 0.08455322 0.14859279 0.013461336 -0.10631279 -0.1949375
-0.17005031 0.19505692 -0.18234175 0.033173773 -0.13644536 -0.05705246 0.03247153 -0.09050982
0.013876331 0.082656 -0.051711943 -0.15854108 -0.027449157 -0.074336104 -0.22451878 0.10146419
-0.0241234 0.05675528 0.12969509 -0.115069374 0.21689853 0.018164648 -0.25804877 0.03764892
-0.24404593 -0.09568339 0.16045216 0.07183529 0.18573229 -0.027665846 0.20545357 0.15746184
-0.053603392 -0.22527587 -0.24811934 0.23816635 0.2996775 0.09544419 -0.03718382 -0.062178686
0.14287372 -0.20966627 -0.17932974 0.005686339 -0.0790426 0.29303437 0.0044736275 -0.03043711
-0.08846167 -0.027196504 -0.06905626 -0.007269629 0.12271878 -0.050648365 0.019394316 0.12721676
0.23482144 0.0067790286 -0.19844706 0.03575315 -0.007827572 0.09542752 0.024152447 0.26157525
-0.08049506 0.16798718 0.07301964 0.08107432 0.037140775 -0.1956171 -0.12488337 -0.08625268
0.027060611 0.10897351 0.15406083 -0.08917432 -0.003150533 -0.13853817 -0.13032363 -0.044830862

features.0.bias f4 [256]
00000000: 99e2 fabd bba1 dbbc 8b9b 613e 549c a3bd
00000010: b3e4 47be c643 41be be58 13be c713 4a3e
00000020: 3f52 38be 3485 d13d 6b8b 483d ffb4 6b3e
00000030: 9ce9 f23d 71de 06bd f07f 60be 0dfe 063d
00000040: 0b24 453b 67e9 0a3e d95c 6ebd 37c2 a63b
00000050: c3ed 21be fa99 98bd 5912 0a3e c42c 573e
00000060: 1838 04be a6ad 83be 94ca 313e 946a 153e
00000070: 002d c73d a276 33be cfb0 db3d 3756 913d
00000080: 1c4d 54be 57f5 1e3e 88a1 1c3e 9051 b7bd
00000090: b223 a3bd fb88 493d c4cc e13d 562f 7e3d
000000a0: 5550 d3bc f603 87bd 9a6a f4bd ddcd ab3d
000000b0: d3fc 14bd f032 d93d 17f6 403e f100 123e
000000c0: b63e 413d 0527 ab3d 3413 21bd 58e8 da3d
000000d0: dcf9 903d a336 463c dcd4 3b3e 013a ca3c
000000e0: f6e9 42be c1b7 063e e888 f7bd 2e75 2a3e
000000f0: 47ae 2aba d3a2 f6bc eaf6 1dbe d68f 0bbe
00000100: 644b 083e 9dee 4e3e 231a 2fbe 9841 703d
00000110: 61d6 46be 6900 38be 8689 64be 3bd5 d73d
00000120: 6ec8 023e 2aeb bd3d d903 933d 94ee 4a3e
00000130: d3b3 20be 3e98 a0bd 5344 c53d df12 0a3d
00000140: 4204 c33d 543d edbd bb3d 133e d14d 84bb
00000150: 02d4 c0bd e693 94bd c7ef 1fbe 245b 213e
00000160: 6558 0d3e d5e2 333e 679f 71bd 8152 38be
00000170: e7ce be3d dcc8 dfbd 7482 10be c381 893d
00000180: 765e 9a3d 8f5f 48be c55f 0c3d 78f4 223e
00000190: 2ebe 0d3e 8a17 9d3d c0ee ce3d d87d f0bd
000001a0: f566 03be 6675 ba3b 57ba edbd 364b d13d
000001b0: 8461 cbbd 3508 783d e057 1bbe d8ad 363e
000001c0: 86e8 afbd db57 c9bd 13d5 063e 5553 b13d
000001d0: 13dd eabd c069 01be 2f88 3d3d c669 283e
000001e0: 271f f9bc 67c6 f43d 4ed9 883d 5894 083e
000001f0: 9f99 123e 82e2 85bd e476 d43d 3e3c 4e3e
00000200: 9713 5fbd 8794 1bbe bdc1 0fbe 01db 9e3d
00000210: 2160 2cbe 4e96 2d3e 15eb 10bc 5c24 38bd
00000220: a240 473d 6f73 1cbe 9eb8 0b3e 6ac1 0b3e
00000230: 1260 88bc 2724 0d3e ffe2 5e3d 9ed4 80be
00000240: 05db 12be a663 debd a6c8 08bc 4444 0bbc
00000250: b562 dcbd 184c abbd db08 19be 1f44 3e3e
00000260: 629e 20bc 4b94 7fbd af8c 6f3e 1763 c73d
00000270: 8a9e 16be 5424 e23d 7c06 b7bd da0d 9c3d
00000280: 6a99 45be 0ee5 4bbe f14c d7bd 06d9 913d
00000290: bcb1 0dbe d971 b0bd 1956 c0bd c952 273e
000002a0: 6d5d e73d 8239 ce3d 382c d23d 5b9f 213e
000002b0: 1741 583e e7f1 083e 3586 843d 9107 2e3e
000002c0: f31d 87bd b8fd bd3d 38ae 773e 4e1f 2abe
000002d0: dc5a c23d 7218 8cbb 82ff 233e 494b 2ebd
000002e0: 4804 343e 07f9 92bd 285b 393e 06b8 4abe
000002f0: dcb4 87bd 01f3 1abe 2675 fabd 3f29 09be
00000300: 5379 12be 9640 04be bab7 f13b 4dca 50bd
00000310: 1d58 e0bd a7c2 cc3d 55d0 af3d 4f68 243e
00000320: fb5c 4e3e beb0 d1bd ea0c 28bd 9e2a 063e
00000330: d146 1cbe 9309 363c e00a a43d 1059 f1bd
00000340: f715 bd3d 518f 303e 3acf a7bd 4184 163e
00000350: 69a8 b5bd 393d 073e 5329 39be 5120 09bd
00000360: b89a cebd abb6 b53c a42c 9bbd 7888 64be
00000370: ce1a 1ebe b48b 31be d011 05be f682 273e
00000380: 78e8 53bd 3ca5 4cbe 92c0 31be f466 9f3d
00000390: b17d 3c3d 9ba1 ec3d ed64 adbd 0144 703e
000003a0: 961c 233e a18b 39be 37f6 acbd 4aa9 463e
000003b0: 5225 b33d 99f0 5fbe 261e 7b3d 4266 423e
000003c0: 2a32 4ebd 25ef b53d 1967 f6bd 32b4 da3d
000003d0: ab54 46bd 6d30 a3bd f00b 45be 7e4e c43d
000003e0: 2c06 34be 9fd5 66bd 3859 7ebd 9591 d13d
000003f0: 6837 4d3e f8de babd afdc 2a3e 0c18 a43c
-0.12250251 -0.026810518 0.22031991 -0.079888016 -0.19520836 -0.1887351 -0.14389321 0.19734107
-0.18000124 0.102304846 0.048961084 0.23018263 0.11860964 -0.03292698 -0.21923804 0.032957125
0.0030081298 0.13565598 -0.058194015 0.00508907 -0.15813355 -0.07451244 0.13483562 0.2101317
-0.12912023 -0.2571842 0.17362434 0.14591438 0.0972538 -0.17525724 0.10727083 0.07096522
-0.2073254 0.15523277 0.15295994 -0.08951104 -0.07965793 0.0492029 0.11025384 0.06205686
-0.025795141 -0.06592552 -0.11934395 0.08388875 -0.036373924 0.10605419 0.18843876 0.14258172
0.047178946 0.08357052 -0.039324954 0.10688847 0.07078907 0.012097987 0.18342918 0.024685862
-0.19034562 0.13156034 -0.1208666 0.16646263 -0.00065109547 -0.030106938 -0.15426221 -0.13629088
0.13310009 0.20208211 -0.17099814 0.058656305 -0.19417717 -0.17968906 -0.22318086 0.10538717
0.1277177 0.092733696 0.07178468 0.19817573 -0.15693597 -0.07841538 0.096321724 0.033709403
0.095222965 -0.11583963 0.14379017 -0.0040375968 -0.09415437 -0.07254772 -0.15618812 0.15757424
0.13803251 0.17566998 -0.05898991 -0.18000223 0.09316807 -0.10926983 -0.14112264 0.06714203
0.07537548 -0.19567703 0.03427102 0.1591357 0.13842079 0.07670505 0.10104132 -0.11742753
-0.12832244 0.0056902645 -0.11607807 0.102194235 -0.09930709 0.0605547 -0.1517024 0.17839754
-0.08589272 -0.0983121 0.13167219 0.086584724 -0.11467948 -0.12637997 0.046272453 0.164466
-0.030410362 0.11951905 0.066820726 0.13337839 0.14316414 -0.065373436 0.10374239 0.20140168
-0.05446204 -0.15193377 -0.14038749 0.077566154 -0.16833545 0.16951868 -0.00884511 -0.04495655
0.048645623 -0.1527841 0.13644645 0.13648 -0.016647372 0.13783322 0.0544157 -0.25162214
-0.14341362 -0.1085885 -0.00834862 -0.0085001625 -0.10761014 -0.08364123 -0.14944784 0.18580674
-0.009803386 -0.062397283 0.2339351 0.09735697 -0.14708915 0.11042085 -0.08936784 0.076198295
-0.19296804 -0.19911596 -0.10512722 0.07121472 -0.13837332 -0.08615465 -0.09391422 0.16340174
0.112971164 0.100695625 0.1026234 0.15783446 0.2111858 0.13373528 0.064709105 0.16995074
-0.06597509 0.09276909 0.24187553 -0.16613504 0.09489986 -0.004275375 0.16015437 -0.042552266
0.17579758 -0.071764044 0.1810118 -0.19796762 -0.06626293 -0.15131761 -0.122293755 -0.1339464
-0.14304094 -0.12915263 0.0073766382 -0.05097418 -0.10954306 0.099980645 0.08584658 0.16055416
0.20152657 -0.10238789 -0.04102794 0.13102195 -0.1526139 0.011110681 0.08009887 -0.117845654
0.09232705 0.17242171 -0.08193822 0.14698888 -0.08870012 0.13206948 -0.1808217 -0.033478085
-0.10088104 0.02218183 -0.07576874 -0.22317684 -0.15439913 -0.17338449 -0.12995076 0.16358551
-0.05173537 -0.19984907 -0.17358616 0.077833086 0.046018306 0.11554261 -0.08466516 0.23463441
0.15928873 -0.1811967 -0.08445399 0.19400516 0.08747353 -0.21869124 0.06130805 0.18984321
-0.05034081 0.08883504 -0.12031383 0.10678901 -0.04842059 -0.07968221 -0.19242835 0.09585284
-0.1758048 -0.05635607 -0.062096804 0.10232846 0.20040667 -0.09124559 0.16685747 0.020030998

features.2.weight f4 [128, 256]
00000000: 69bf b7bd 4c30 09be ea37 043e 591d dfbd
00000010: 002b a7bd aab1 a6bd fecf 06be 2f38 0a3e
00000020: c2d6 29bc fd5c fbbc c3b8 c33d a875 d03d
00000030: 388d 7bbd 6729 173d 1c30 8ebd 9f17 133d
00000040: 7dbc 603e dde6 e93d 8083 853c 9a4b debd
00000050: e996 663c c004 9fbd 64b6 ca3d 923b a13d
00000060: e3ba a4bd a5ca 2dbd a4c3 ab3d 7f09 84bc
00000070: 08df 9a3d 0c97 6fbd 6d94 bf3d a612 ab3d
00000080: e811 4bbb ede6 8ebc 3c3d e9bc 52ee 823d
00000090: b12f 0ebd 2f41 dbbd 0962 bb3d cf24 3bbd
000000a0: b266 833c a9de a43c 3311 57bc 91a3 75bc
000000b0: 841c 03bd 6e59 ae3c 7cfb 09bd 9e31 a03d
000000c0: a691 f8bd 7ae0 4dbd 7cf6 953c 2670 2ebd
000000d0: 3374 523c 2092 023d fdff ef3c 59f5 c4bd
000000e0: 9b3f 03be 1d78 b93d 2c24 1d3d 6b82 1f3e
000000f0: 1f7c 64bd 2c3e 00bd 6726 e0bd 1ba1 e33c
00000100: 97ef a53d b9e1 0bbd 29bb a0bc 8c7a ba3d
00000110: ad44 3cbd a81a b3bd ce60 c8bd 6d08 023e
00000120: f547 8cba 7642 823d f4a9 42bd 497c d23d
00000130: be40 9fbd b623 463d 3da5 d8bb 854b c1bd
00000140: 9830 8cbd 2c65 29bd c2c4 d83d 6cf1 813d
00000150: 7d06 7ebc 1dec 7b3d 7772 93bd 9b36 ce3d
00000160: acfa 2e3e 38fc 793d edd9 febc 4b2c 02be
00000170: 511e b2bd 469b c4bd faa8 fe3c e93a 4b3d
00000180: 480e d8bd 3099 a5bd 57d3 16be 50a1 273e
00000190: 585b 833d 2c4e 07bd 4a2d cc3d 803b 78bd
000001a0: da7c a2bc 57f0 59bd 21bb 87bd 773f 8b3d
000001b0: dcc3 83bd 6e87 df3c 2b6a 96bc cc7c ce3d
000001c0: 8e42 26be 5dd4 3d3d 43d2 373d 69a9 c0bd
000001d0: 52d0 58bd 7e88 6fbd 557c f63d ed09 2fbd
000001e0: 1772 09be 46df 193e 976a 143d afa8 4f3e
000001f0: 0535 9a3d e0de 253d 828b 613d 750c e63d
00000200: c960 dd3d db81 03bd 256c fcbb 3d53 35bd
00000210: c9d1 67bd b66e 613d 0d8f 2a3d ea56 e3bc
00000220: 2943 9c3b 8532 2136 112d 4f3d bf05 a03d
00000230: 1f72 fe3d 5523 453d 4001 223e 6ff2 e4bd
00000240: 92c4 34be 4058 3bbe 927b 55bc fcd5 c33d
00000250: 8761 5dbb 5883 30bd af50 f0bd 7b06 753d
00000260: a7ca 013e e9a2 e2bd 6e92 2a3d 5c7a 513e
00000270: 4144 a0bd 0b1b aebd 95f4 90bd 1ed5 253e
00000280: e286 8dbd 0f2a 8cbd 81a7 21bc 7056 dd3d
00000290: 1f7c c2bd 73e4 2abd e9a6 b13b 456a e43d
000002a0: de8e 483d 3648 da3d d30d cf3c 4349 203e
000002b0: 8fc5 203d 83f0 a43d bbcd e73c 325e 6cba
000002c0: 6878 6fbd b22a fc3d b158 523d 29cf 293d
000002d0: 1dc6 aebd 01b8 b1bc 6635 723e eee3 8b3d
000002e0: d9b9 6bbc fcf2 ccbd f286 103e a347 10bd
000002f0: d1e2 1dbd 40b7 07be f7ec 11be 20c6 2bbe
00000300: c810 43bd b1f1 5abc 147e 52bd 2c12 cbbc
00000310: f31b a6bc 730d cf3d 3e48 2ebd 5ba9 d43d
00000320: 3d0b 293d 4031 03be c25f a6bd 7d04 bd3c
00000330: a67d c9bd 4bbc 293e e241 0c3e ab8e 963c
00000340: 93b1 fb3d 00c3 4f3d 592e b53c 0894 8a3d
00000350: b0f1 a43b 14f5 8a3c 4af2 c4bd fac4 433d
00000360: 2394 35bd a7b7 2ebd dc71 943c 7dd1 b0bd
00000370: cc03 bebd baac 9abb 47f8 56bd a57c 203e
00000380: 8ffe c03c ce57 a3bd 9281 483c b2f6 3dbd
00000390: a952 b43b f57b 073e 6cf1 a2bd 42b1 8abc
000003a0: 07be 93bc 4d8b cbbd fe00 6abe 4bd4 063e
000003b0: 0576 273e 6ba3 50bc ec12 fe3d 89e3 86bd
000003c0: fb2b 403d 1fd8 203e 31a2 3dbc 5890 e23d
000003d0: b00c eabd 9c71 4ebe 093a 4cbd 81b8 a13c
000003e0: 8acb b1bd 12e6 fcbc 6b19 8dba a141 3a3d
000003f0: 0564 403d 9aa5 cdbc d533 7c3d 8022 243d
-0.089720555 -0.1339733 0.12911955 -0.108942695 -0.081624985 -0.081393555 -0.1316528 0.13497995
-0.010366144 -0.030683989 0.09556725 0.10178691 -0.061413974 0.03690472 -0.0694277 0.0359112
0.21946903 0.11420987 0.016298056 -0.108542636 0.014074066 -0.07764578 0.098980695 0.0787269
-0.08043458 -0.042429585 0.08386925 -0.01611781 0.07562071 -0.05849366 0.09354482 0.08353166
-0.0030986015 -0.017444098 -0.028471582 0.06393112 -0.03471345 -0.10705792 0.09149558 -0.0456894
0.01604018 0.020125704 -0.013126659 -0.014992611 -0.032009616 0.021282878 -0.0336871 0.07821964
-0.12137155 -0.050262906 0.01830601 -0.04258742 0.012845087 0.031877637 0.02929687 -0.09617109
-0.12817232 0.09056113 0.038364574 0.15577094 -0.055782434 -0.03130929 -0.10944825 0.027786782
0.08102339 -0.034150813 -0.019620495 0.09105405 -0.04596393 -0.08745319 -0.09784089 0.12698527
-0.0010702597 0.06360333 -0.04752536 0.10277612 -0.077760205 0.0483739 -0.006611495 -0.09438232
-0.06845206 -0.04135625 0.105844036 0.06344876 -0.015504477 0.061504472 -0.07199567 0.10069009
0.17087811 0.06103155 -0.031109774 -0.12712209 -0.08697189 -0.095999286 0.031086434 0.049616728
-0.10549599 -0.08085859 -0.14729057 0.1637013 0.06413907 -0.033033535 0.09969576 -0.06060362
-0.019834924 -0.05320772 -0.06627489 0.06799214 -0.064338416 0.027286258 -0.018361172 0.10082397
-0.16236326 0.046345104 0.044878256 -0.094073124 -0.052933045 -0.05847978 0.12035433 -0.042734075
-0.13422428 0.15026578 0.036234464 0.20279191 0.07529644 0.040495753 0.055064686 0.11232845
0.10809476 -0.03210626 -0.0077033215 -0.044268835 -0.05659655 0.055037223 0.04164033 -0.027751405
0.0047687483 2.4020276e-06 0.050580088 0.07813596 0.124241106 0.0481294 0.1582079 -0.11179053
-0.1765311 -0.18295383 -0.01302995 0.09562299 -0.0033780055 -0.04309401 -0.11734139 0.059820633
0.12674962 -0.11066229 0.041643552 0.20456833 -0.078255184 -0.08501252 -0.070779 0.16194579
-0.069104925 -0.068439595 -0.009866596 0.10807502 -0.094963305 -0.041721772 0.0054215086 0.11153082
0.048964374 0.106583044 0.025275147 0.15652947 0.039250907 0.080536865 0.028296342 -0.0009016722
-0.058464438 0.12312831 0.051354114 0.04145733 -0.08533881 -0.021694185 0.23653182 0.068305835
-0.014387571 -0.10007283 0.14113978 -0.035224568 -0.038546387 -0.13253498 -0.14250551 -0.16774797
-0.047623426 -0.013363288 -0.05138977 -0.024788938 -0.020277 0.10109987 -0.042549364 0.103838645
0.041270483 -0.12811756 -0.08123733 0.02307343 -0.09838419 0.16575734 0.13697007 0.018378576
0.12289729 0.050723076 0.022116827 0.06766516 0.005033694 0.016962565 -0.096165255 0.047795273
-0.044330727 -0.042655613 0.018120699 -0.08633707 -0.09278068 -0.0047202976 -0.05248287 0.15672548
0.023558883 -0.07975732 0.012237923 -0.046377845 0.005503018 0.1323088 -0.07956204 -0.016930226
-0.018034948 -0.09938679 -0.22851941 0.13166921 0.16353615 -0.012734274 0.12405953 -0.06586368
0.046916943 0.15707444 -0.011574314 0.11062688 -0.11428201 -0.20160526 -0.049860034 0.019741299
-0.086814 -0.030871425 -0.0010765021 0.045472745 0.046970386 -0.025103379 0.06157287 0.040071964

features.2.bias f4 [128]
00000000: c003 733c 6fff a0bc 750b dfbc 9edf 0ebe
00000010: fb69 903d f015 b23d e28f aabd 57c0 bdbc
00000020: d87e edbd 2c32 10bc 5393 fd3d c84d db3c
00000030: c0e6 c83d 34a3 cd3c 4db0 ea3d e4bd 4ebd
00000040: 119c f23d 5c16 4f3d 5e65 88bd 7acb b63d
00000050: 8c78 83bd eccc 673d 8b4f 99bb b2f3 46bd
00000060: f5a6 9cbd ad0a acbd 2427 f13c 474a 51bc
00000070: 1def ff3d 2127 103d 2ad2 d73d 8bbc 1f3d
00000080: 79e1 8d3d 10ed 1a3c 1771 7dbd 7846 1abe
00000090: fc46 1fbe 89a2 19bd 07df 60bc 6552 38bc
000000a0: df3f 663d ba90 a43c 5de0 d9bc aaa2 d53b
000000b0: d2de 0b3d 20e6 6d3d b792 3a3c 1677 553d
000000c0: 0b51 e1bd 81a5 0f3d 18ff 593d 7e8a 07bd
000000d0: 6a83 63bc 3861 953d d60d 5bbd 1bb5 593c
000000e0: 0f87 c4bc 73e1 863c eed5 953d e039 cabb
000000f0: cbd8 2c3d f614 763d 8d42 febc a27a 27bd
00000100: ad00 6e3d 4c29 8ebd e210 d13d 7292 d0bd
00000110: c734 acbc 7dce a53d 0637 0bbd 1d1a 85bd
00000120: b64e 923d 0590 24be 0d88 93bd f244 e3bd
00000130: b120 df3d 8e07 54bd b408 86bd d409 133d
00000140: 863c cebc d0f5 833c e2c7 9a3d 6d7f 0e3d
00000150: a64f e6bd fa5a c3bd 41ed c73d cfd9 8abd
00000160: f570 58bd eeb8 54bd d7b0 e73b 5bec 79bd
00000170: e938 d43d 4092 4bbd 89dc ef3a fd5d 1b3e
00000180: baab de3d adcc d03d bef8 cdbd 548f b33d
00000190: 7b70 493d 2536 d0bc f45e e7bd 30ec 9f3d
000001a0: 20f4 a8bc cd79 853d c8bb 93bd a11d 50bb
000001b0: ce03 c3bd d6a4 4abc 7daf 06be cebe c93d
000001c0: 541d 173d fc5f bebd fc66 d8bd c1fe 103e
000001d0: 444d 933d e7e8 8cbd de14 0cbd 503b 0bbd
000001e0: 8939 b5bd 0748 0bbe ac27 2cbb 34c2 07bc
000001f0: 2d1c bd3d 6eff b43d 7c47 ac3b 6ad1 c8bb
0.014832437 -0.01965305 -0.027227143 -0.1395249 0.07051464 0.086955905 -0.08328225 -0.023163004
-0.11596459 -0.008801024 0.123816155 0.026770487 0.09809637 0.025102235 0.11459408 -0.050474063
0.118461736 0.050558433 -0.06659959 0.08925529 -0.06419477 0.056591913 -0.0046786717 -0.04857225
-0.07649032 -0.08400474 0.029437609 -0.012774057 0.12496779 0.035193566 0.105381325 0.038998168
0.06927771 0.009455934 -0.06187543 -0.15065944 -0.15554422 -0.03750852 -0.013725049 -0.011250113
0.056213256 0.020088542 -0.026596243 0.006519635 0.034148045 0.058080792 0.011387519 0.052115522
-0.11001786 0.035069946 0.053221792 -0.03309106 -0.013886312 0.07293934 -0.05347999 0.013287808
-0.023990182 0.016464924 0.073161945 -0.00617145 0.042198937 0.060078584 -0.031037593 -0.040888436
0.058106113 -0.069414705 0.10208298 -0.10184182 -0.02102126 0.08096025 -0.03398802 -0.06499121
0.07143919 -0.16070564 -0.07203684 -0.11097135 0.10894907 -0.051765017 -0.06544629 0.035898045
-0.025175344 0.016108423 0.07557656 0.03478949 -0.112456605 -0.09538837 0.097620495 -0.06779825
-0.0528421 -0.051934175 0.0070706415 -0.06101642 0.10362417 -0.04970002 0.0018299978 0.15172572
0.10872598 0.10195289 -0.100572094 0.08767572 0.049179535 -0.025416443 -0.11297408 0.07808721
-0.02062422 0.06517372 -0.07213551 -0.0031755941 -0.0952221 -0.0123684015 -0.13152881 0.09850846
0.036893204 -0.09295651 -0.10566518 0.14159681 0.071924716 -0.0688036 -0.034199588 -0.03399211
-0.088488646 -0.13601695 -0.0026268763 -0.008286048 0.0923389 0.08837782 0.005257545 -0.0061284797

features.4.weight f4 [64, 128]
00000000: da29 6abd 3e6c 1dbe 4f8f 073c 99b2 16bd
00000010: 76d5 1a3d 273d d9bd 8fa6 483e b3f4 483d
00000020: 8894 b9bd f75d 213d 5f56 bdbd 965e b03c
00000030: 78e1 ad3d 71d5 febd 921f ca3d 95f3 0b3e
00000040: 822d 1d3d e549 24be 6b3a 143e 5e26 873d
00000050: 5155 bcbd 8ad0 22be 2365 e1bd ec2f dc3a
00000060: fcd6 ebbc 4f0e 553c 2920 4abe 0d61 fcbd
00000070: dd96 cbbc c859 00be e9fb 01be cef1 5dbe
00000080: 74e2 b43d e244 ddbc 059c 813d 81d9 2c3e
00000090: 8773 6abd 47ae c23d dfc8 d6bd 26c3 683e
000000a0: 7d80 d0bd 4639 173e 0a82 0b3e 5097 d7bd
000000b0: 8ed0 aabd 18e2 c7bc 4637 5e3e 0c63 4dbe
000000c0: 803b 3a3e 3240 6abe 7789 363e 8bba cc3c
000000d0: e5c6 80bd 5252 acbc 02eb e13d add3 a7bd
000000e0: 8798 093e 5486 bc3d f07a 73be 8116 9b3d
000000f0: bfa7 14be 9bb7 babd 349a b23d 0374 e33c
00000100: eb24 82be 583d 0ebd 2f54 87be 6e3a ff3d
00000110: f3fc 2fbe f1c9 e6bd 9a43 0e3e 08b5 833e
00000120: d1ed 02bd ee9f 623d b66e 9b3d 46d7 60be
00000130: 638a 2dbd 7dfb 88bc 4c4c 6cbb 5b83 f1bd
00000140: 7f1d 7cbc 9309 883e f905 0f3d eb69 1fbd
00000150: 7f82 2f3e e302 593d 1c18 e6bd f713 253e
00000160: 2449 133e 78e0 2ab9 a752 e2bc 3cd8 a1bb
00000170: 8853 0ebe 7857 2abd ad91 b43c 9cae 65be
00000180: d07d 34be 996b f43b c9be e73c 18ff 4fbe
00000190: b172 c7bd f08e 0d3e 9a05 54bb 6c1f 9f3c
000001a0: 6646 943d ba72 10bd 9cff 2f3e 3a67 09be
000001b0: 48ca 0e3e b34d fbbd d11c dd3c 46e7 a33d
000001c0: d094 493b f0ed 5b3d 1e56 e43c e118 3d3c
000001d0: 5a58 aabd abee 67bd 1291 e73d 0bb3 493e
000001e0: f2b1 2c3d 479e 2abe e7c7 2a3e 882b 68bd
000001f0: 826b 1e3c 5ba1 953d c1a7 8f3c 9c07 acbc
00000200: 11ef ffbd 25b3 f6bd b44b dbbc ad06 203e
00000210: 9e23 273c 3629 583e 6009 b13c cefc a43d
00000220: d42f 5d3d 2a8f 54bc 2be3 0cbe d52d 29be
00000230: 5367 2a3e 6ba8 17be c28d 143e fee4 973d
00000240: d6aa 1b3d 9218 20be 63af 843d f5e8 56bd
00000250: 6bff 4c3b f5b5 6ebd 9470 dabd 6556 48bd
00000260: 14ee 1cbe 04bf 0b3d e3a1 79bd f654 973d
00000270: a4ca bdbc 59c2 1dbd bb5e 313e 3072 26bd
00000280: 0be1 233c 8474 513d 7d72 18be 2b78 a6bd
00000290: ae9c b3bc 0cc0 af3d a55d 233d 921f 5b3d
000002a0: 865d c7bd 9409 d13c 7fd5 ffbb c885 4d3d
000002b0: 7a1e 8fbd b778 fb3c 7bfb 573d 2f10 90bd
000002c0: 1481 833c ab42 323d 4666 0e3d 52f4 c0bc
000002d0: 5a1c c03d ac76 cc3c 43d9 8f3d 405a 0abe
000002e0: 58b2 ed3c cde5 50bd 1247 2dbe 855c d53d
000002f0: 6e34 913c 4ca4 13be ba98 4b3e e332 febd
00000300: f3fd a0bd 9a51 adbd 749f da3c 9b18 e8bd
00000310: 0600 47be a28e 13be e936 433d fffa 6ebd
00000320: 3be7 713e 6bd2 0bbe b57b 013e 02a8 44be
00000330: e388 2b3e 165b c3bc eefc 66be 4f09 4ebd
00000340: 2a14 6e3c 501c 333e f41a 70bd 9274 8bbe
00000350: 65a1 bc3d cf5b 1a3e 8683 60be 07c3 203e
00000360: f9a7 a63c 2338 0e3e 75c6 0e3e e244 cf3d
00000370: 9ca0 74bd 418d 463e 32a6 813c aee5 af3d
00000380: f145 7cbd 167d 9d3d ec9a 8cbe 1070 353d
00000390: c950 1abe b8fc 523e b3f7 ec3b 95d8 283d
000003a0: e8b3 c3bd 01d3 cabc 0492 b5bd 490f a0bd
000003b0: c47c 8fbd 37b7 57be 8845 16bd db7f 163e
000003c0: 0565 e8bc b70d a9bc 16ba 88bd 9790 e83d
000003d0: 4a48 8abd 1bae 363e 9ba3 9f3d bd75 333d
000003e0: 5fdf 49be 0859 78be 70ca 1b3e aa01 293e
000003f0: ca63 013e 7510 123e 5f92 dc3d 4770 5abb
-0.05716882 -0.15373322 0.0082739135 -0.036791418 0.03780123 -0.10607367 0.19594787 0.04906149
-0.09061533 0.039396252 -0.092449896 0.021529477 0.084902704 -0.124430545 0.09869303 0.13667138
0.038373478 -0.16043814 0.1447541 0.06599115 -0.0919596 -0.15899864 -0.110056184 0.001679895
-0.028789036 0.0130039 -0.1973883 -0.123231985 -0.02485221 -0.12534249 -0.12693752 -0.21674272
0.08832255 -0.027010385 0.063285865 0.16879846 -0.05723908 0.09505897 -0.10487532 0.22730693
-0.10180757 0.14767942 0.13623825 -0.105269074 -0.0834056 -0.024399802 0.21700773 -0.20057315
0.1818676 -0.22876051 0.17825876 0.024991294 -0.06287936 -0.021035347 0.11031152 -0.08194671
0.13437091 0.092053086 -0.23777366 0.07572652 -0.14517115 -0.09117051 0.08720818 0.02776528
-0.2541879 -0.03472647 -0.26431414 0.124623165 -0.17186336 -0.11268986 0.13892975 0.25724053
-0.03196508 0.055328302 0.07589476 -0.2195712 -0.042368304 -0.016721481 -0.0036056219 -0.11792632
-0.015387892 0.26569805 0.034917805 -0.03891937 0.17139624 0.05298127 -0.11235067 0.16120897
0.1438337 -0.00016296085 -0.027627302 -0.004939107 -0.13899052 -0.041587323 0.02204212 -0.2242989
-0.17626119 0.0074591157 0.028289216 -0.20312154 -0.097386725 0.13824058 -0.0032351972 0.019424163
0.0723999 -0.03526566 0.17187351 -0.13418284 0.13944352 -0.12270679 0.02699128 0.08003096
0.0030758865 0.05369371 0.027873095 0.011541576 -0.08317633 -0.056624096 0.11306967 0.19697206
0.04216189 -0.1666194 0.16677819 -0.05668214 0.009669187 0.07306167 0.017536046 -0.020999722
-0.1249677 -0.12045888 -0.026769497 0.15627547 0.010201363 0.2110947 0.021610916 0.08056031
0.05400069 -0.012973586 -0.13758533 -0.1652139 0.16640978 -0.1481034 0.14507201 0.07416724
0.03800472 -0.15634373 0.06478765 -0.05246826 0.003128017 -0.058278996 -0.10666004 -0.048910517
-0.15325195 0.034117714 -0.060945403 0.07389252 -0.023167916 -0.038515422 0.17321293 -0.04063624
0.010002385 0.05113651 -0.14887424 -0.08128389 -0.021925297 0.08581552 0.03988423 0.053496905
-0.09734635 0.025517263 -0.007807433 0.050176412 -0.06988235 0.03069721 0.052730065 -0.07034337
0.01605276 0.04352061 0.034765504 -0.023554001 0.09380408 0.02495893 0.07023861 -0.1351099
0.029015705 -0.051000405 -0.16921642 0.10418037 0.017725196 -0.14418143 0.1988248 -0.124120496
-0.07860937 -0.0846283 0.026687361 -0.11332818 -0.19433603 -0.14409879 0.04765979 -0.058344837
0.23623364 -0.13654487 0.12644847 -0.19204715 0.16751437 -0.023847144 -0.22557423 -0.050301846
0.014531175 0.17491269 -0.058619455 -0.27237374 0.09210471 0.15074085 -0.21925172 0.15699397
0.020343767 0.13888602 0.13942893 0.1012056 -0.05972348 0.19389822 0.015826318 0.0858873
-0.06159014 0.07689874 -0.27461946 0.044296324 -0.1506988 0.20604217 0.0072316765 0.041222174
-0.09555799 -0.024758818 -0.08865741 -0.078154154 -0.07006219 -0.21065985 -0.036687404 0.1469721
-0.028368482 -0.020636423 -0.06676118 0.11355703 -0.06752069 0.17839853 0.07794877 0.043813456
-0.19714116 -0.24252713 0.15213943 0.16504541 0.12635723 0.1426409 0.107701056 -0.0033331083

features.4.bias f4 [64]
00000000: 1eb6 e7bd 577b d33d 4f1a 0dbe 5f29 01be
00000010: d416 0c3e e334 413d cd54 113e 20b1 84bd
00000020: 2e47 f8bd e98c a2bd 521e d33c 816b 87bc
00000030: 4fc8 fd3d d9ef e33c 0a33 303e 14c2 a5bd
00000040: c2b7 3bbd 93bd 72bd 48f7 e43d 5830 893d
00000050: 91d8 69bd 59ed 413d dd06 f03d 32f6 d93d
00000060: bc0e 45bb cf6b c9bd a3ea 10bd 7d27 963d
00000070: 3f11 5ebd 5259 a0bd 8f82 87bd 28ea 6b3d
00000080: 376f a0bb 6d53 033e 65ed d1bd 89f9 79bc
00000090: 5841 d33d 2c13 88bd ffbe b83d 10ef a0bc
000000a0: a013 013e c57b cf3d fa3e 13bd aa08 d6bd
000000b0: cd2a 513d 8e92 7e3d f85f 38be c056 243d
000000c0: da79 a7bd b14a 673d e240 023e a3f2 363d
000000d0: 5701 9d3c 2aa1 49be 93fc 01bc fd07 cabd
000000e0: 5c18 f43d 71e1 a43d a50d 59bd 90f0 8d3c
000000f0: a005 92bd 7faa 283d ea2c 0abd f127 e8bb
-0.11314033 0.103262596 -0.13779567 -0.12613438 0.13680583 0.047169577 0.14192505 -0.064790964
-0.121229514 -0.07937033 0.025771294 -0.016530754 0.123917215 0.02782433 0.1720697 -0.08093658
-0.045829542 -0.059262823 0.11179978 0.06698674 -0.0570913 0.047345493 0.11720059 0.10642661
-0.0030068597 -0.09835016 -0.035380017 0.073317505 -0.054215666 -0.078295365 -0.06616699 0.057596356
-0.0048960703 0.12824793 -0.102503575 -0.015257248 0.10315198 -0.06644282 0.090208046 -0.019645244
0.12605143 0.10131029 -0.03594873 -0.10450871 0.05106621 0.062151484 -0.18005359 0.040121794
-0.08177538 0.056467716 0.12720063 0.04466499 0.019165678 -0.19690385 -0.007933754 -0.09864805
0.11918709 0.08050812 -0.052991528 0.017326623 -0.07129979 0.041178223 -0.03373424 -0.0070848395

features.6.weight f4 [32, 64]
00000000: 045b ccbb 2ae3 74be c8c5 95bd c8f6 1fbd
00000010: e875 d33c d020 233d bbb8 c33d 8ff5 0bbe
00000020: afd7 b5bc 414d 2dbe def2 f4bb d2af 36be
00000030: f9d2 343e 5884 3bbd 024f b83d b604 8bbe
00000040: f3f2 53be 5cb9 9dbd 50f7 283e e84f 363e
00000050: 884a 27be 08e4 63bb 2f87 b53c 18b0 273e
00000060: d339 8dbd 6819 b5bd f536 ddbd a0ad 02bd
00000070: af1a 02bd 9bd6 3ebe 27f0 0fbe 6e0a bc3d
00000080: a016 c03d f941 cb3d d12b 83bd 1bcd 843d
00000090: 1d47 623e e3be 2abe 38b9 9b3b 4d0b f63c
000000a0: 833d 513e 2c9f 343e a2c6 4d3e c5bf 54bd
000000b0: 83a6 b23d 0f30 afbb c43a f7bd 9f9e 5e3d
000000c0: a625 85bd 04bd 0cbd 6c57 343e fb68 54bb
000000d0: 3ed5 1bbe e883 06be 4b08 c0bd a26e 5abe
000000e0: e219 5e3e 3b77 203e 5d84 0bbd da55 0b3e
000000f0: dd0a 043d 71db 1c3d 9828 5dba b29f d23d
00000100: 6c0d 4abe 499d 513e b0c6 1bbe a755 0a3d
00000110: f1a2 133e 3989 d4be bccb 803b 6bfb c23e
00000120: 30ab e93e cfcd 3abe 0ede c83d a8e9 a23d
00000130: 2828 0cbe 6f2a 963c ea46 42bd 45dd 973e
00000140: 6b4e f4bd 2cfa 88be 3e4e b23d b449 693d
00000150: 484e 81ba 1bce 9cbe c999 743e 9ce8 573e
00000160: 08e8 b2be 891d 88bd fa9e 2dbb ade7 2bbe
00000170: 24fe 2c3a 2014 343e 11b8 f73d 00aa 63bd
00000180: 0dd6 403d 5b39 26be cab5 95bd ac17 503e
00000190: e2ed 42bd 837e df3d efce 873e 14d5 813e
000001a0: a686 2a3e d9c3 323e 7397 a5be 221e 813e
000001b0: 49ab d13d 614e 23bd 1570 1bbe 433c 573d
000001c0: 03cf 713e f49d 0cbe 5652 85be 0668 0fbe
000001d0: 401f e7bd 0854 dd3e d232 4ebe 778c 23bd
000001e0: 07fe eebc c3b1 1abe c762 87bd b38c abbe
000001f0: 54dc b1be 33e3 6e3c c4ea ef3c fd0d c4be
00000200: 2453 9abe 56de a9bd 7c5b 3fbc 1d7e 4abd
00000210: 29af 803d 5fab cfbe 4098 aa3e 3ad1 3f3e
00000220: d4be 273e dce1 f7bc 6ce9 143d 1f33 10be
00000230: ea6d 89bd b8d4 40be cbdf 62be 8122 fcbc
00000240: c024 38be f339 3bbd f6e7 31bc 2744 243e
00000250: 62c7 96be ce5e 90bc 9f06 3a3e bf2a 8d3e
00000260: d772 88be 05b7 52be 6a74 4fbe 2ce7 bdbc
00000270: eecb bbbe 14ca 763e d652 d3bd 9dde 8ebd
00000280: f274 b33e b23d 2f3e e18e 7c3d 756c 8a3e
00000290: 199b ac3e 476f 0e3c eedb fcbd 1102 993d
000002a0: 8616 363e 4ebe 5bbd 4ba2 053d 9954 113d
000002b0: 4ab1 c13d 4c09 1b3e 51c3 d03d 7e52 31be
000002c0: 2071 a03c e45c 59be d6cb 93bd e6bd a5bc
000002d0: 50ce 9dbe 2a30 7e3e ad15 b2be fdc8 7dbd
000002e0: f8ef 843d 28fd 393e abbe cc3d edec ae3d
000002f0: e245 29be 22ea 97ba ef51 63be 4072 ccbc
00000300: 10db f43c aa05 0cbe 8d05 73bc e2bd 683e
00000310: e589 053e 6b59 0cbd 5b03 123d 55b5 8d3d
00000320: 9250 8abd e72d de3c fa3f 75bd bc58 073d
00000330: 401d 3dbe af12 b0be 20ae edbd b72f 43bd
00000340: 8dba a43e 3962 3e3e 8aff 70be 15f4 15be
00000350: f043 823d b7f1 ddbe 2020 4bbd 8359 15be
00000360: decc 253e 1a65 7c3d 014b d2bb 245e 08be
00000370: 675f 51bd 3a71 913e f9fa 8ebc 9faf 95bd
00000380: da53 933e 6dcf 0abe bda5 9b3e 029b 1f3e
00000390: 7b7e 173d 16ca 723e 18a5 4bbe 2538 1dbe
000003a0: 344e aebd db7a cbbe 31b9 af3d 54ee 07be
000003b0: 713b 2abd e627 1c3e 3261 683e 991a bc3d
000003c0: 0b61 583c fec7 8ebe d3de a8bd 5081 03be
000003d0: c775 973c fd44 c1bd ff86 f83d 166c 723e
000003e0: 1dcc 46be 44b4 8bbe 5658 683e cda2 e5bc
000003f0: 2a7e 22bd ebc5 9ebe fd38 313e 873f 22be
-0.006236436 -0.23914781 -0.073131144 -0.03905371 0.025813058 0.039826214 0.09556719 -0.13667892
-0.022197573 -0.16924001 -0.007475241 -0.17840508 0.17658605 -0.04578051 0.089994445 -0.27152032
-0.20698147 -0.0770137 0.16500592 0.1780392 -0.16337025 -0.0034773368 0.022159187 0.16375768
-0.06895795 -0.088427365 -0.10801498 -0.031903863 -0.03176373 -0.18636553 -0.14056455 0.09181677
0.093793154 0.09924693 -0.06404842 0.06484433 0.2209744 -0.1667438 0.0047523044 0.030034686
0.20433621 0.17638844 0.20095304 -0.0519407 0.08723166 -0.005346305 -0.120717555 0.05435049
-0.065013215 -0.034359947 0.17611474 -0.0032411206 -0.15218064 -0.13136256 -0.09376582 -0.21331266
0.21689561 0.15670483 -0.03406178 0.13606969 0.032236923 0.038295213 -0.000843653 0.10284366
-0.19731683 0.20470156 -0.15212512 0.03377309 0.14417626 -0.41510943 0.003930537 0.38082442
0.45638418 -0.18242572 0.098079786 0.07954723 -0.13687193 0.01833078 -0.04743091 0.29661003
-0.119290195 -0.26753366 0.0870633 0.056955054 -0.0009865249 -0.30625996 0.2388679 0.21084827
-0.3494265 -0.066462584 -0.0026492462 -0.16787596 0.0006599149 0.17585802 0.12095655 -0.055582047
0.047079135 -0.16232817 -0.07310064 0.2032153 -0.047590144 0.10912802 0.26525065 0.25357878
0.16652927 0.17457522 -0.3234211 0.25218302 0.10237748 -0.03986967 -0.15179475 0.052547704
0.23614125 -0.1373213 -0.2603938 -0.14004526 -0.11285257 0.43228173 -0.20136574 -0.03992888
-0.029173864 -0.15106873 -0.06610637 -0.33505782 -0.3473841 0.014580536 0.02928675 -0.38291922
-0.30141556 -0.0829436 -0.011679526 -0.049436677 0.06283409 -0.40560433 0.33319283 0.18732157
0.16381389 -0.030259065 0.03635542 -0.14082001 -0.067104176 -0.18831146 -0.22155683 -0.030778171
-0.17982769 -0.04570956 -0.010858526 0.16041623 -0.29448992 -0.017623331 0.18166588 0.27571675
-0.26650116 -0.20577629 -0.20259252 -0.02318152 -0.36679024 0.24100524 -0.10318534 -0.06976054
0.3505016 0.17113379 0.061659697 0.2703587 0.3371208 0.008693523 -0.12346636 0.07471097
0.1778203 -0.053648286 0.032625478 0.03548107 0.09457643 0.15140265 0.10193504 -0.17316625
0.019585192 -0.21226841 -0.07216613 -0.020232152 -0.30821466 0.2482306 -0.34782162 -0.061959255
0.06491083 0.18162978 0.099973045 0.08541284 -0.16530564 -0.0011590163 -0.22199224 -0.024956822
0.029889613 -0.13674036 -0.014832866 0.22728685 0.13040884 -0.034264963 0.03564773 0.06919352
-0.06753649 0.027121497 -0.059875466 0.033043608 -0.18468189 -0.34389254 -0.11605477 -0.047652926
0.32173577 0.18592156 -0.2353498 -0.14643891 0.06360614 -0.43348476 -0.049591184 -0.14584927
0.16191432 0.061619855 -0.0064176326 -0.13317162 -0.051116373 0.28406698 -0.017453657 -0.07308888
0.2877491 -0.13555689 0.30399886 0.15586475 0.036985856 0.23709902 -0.19887197 -0.15353449
-0.0851101 -0.3974217 0.08580244 -0.13274509 -0.041560594 0.15249595 0.22693327 0.091847606
0.013206731 -0.27886957 -0.08245625 -0.12842298 0.018488778 -0.094369866 0.121351235 0.23674044
-0.194138 -0.2728597 0.22689947 -0.028031731 -0.0396711 -0.31010374 0.17306896 -0.15844546

features.6.bias f4 [32]
00000000: 9235 233e 4dd1 e6bd c8b8 dc3d 0d43 85bd
00000010: 75fd 123e d62d 48ba cb1d debd 58bb 30be
00000020: f329 a03d affd 1d3e e328 b3bd bf61 233d
00000030: 83fa a13d 719a e9bd c8ed 563b 9870 933d
00000040: 7729 54bd dda9 763d abdd d03d fc24 b6bb
00000050: 4a1d 0abd e89c ef3c 6d55 3fbd ce58 03be
00000060: 1e24 7cbc 1b88 39be 13e4 f83c 2c68 e93c
00000070: 316e 44bd 4a21 803d 777b 583c 3adb ec3d
0.15938404 -0.1127039 0.10777432 -0.065069295 0.14354499 -0.00076362246 -0.10845526 -0.17258966
0.07820501 0.15428804 -0.08748033 0.03988814 0.079091094 -0.114064105 0.0032795537 0.0719921
-0.051797356 0.060220588 0.1019853 -0.005558608 -0.03371934 0.029249623 -0.046712328 -0.12826845
-0.01538947 -0.18118326 0.030382192 0.028492056 -0.04795665 0.062563494 0.01321303 0.11565252

classifier.weight f4 [100, 32]
00000000: 498e 333e 3cae 043f 8f0b c13e 230f bfbe
00000010: a90d 363e 5586 263e 4eeb c43e 1af1 90be
00000020: 703f 4ebe 0132 c33e 74bd c0be 2226 a13e
00000030: 9220 eb3e 01a0 0ebf 76f9 f3bd a704 f4be
00000040: fba3 dbbe 34ee 863e a838 c73c a047 95be
00000050: 6aa3 1f3e 8778 883e 1870 b0be 32a2 90be
00000060: 7044 193d 853c 10bf 64a9 8dbe 69d3 713e
00000070: 3ba2 2fbf 8ca3 0d3e afdc aebe f05c edbe
00000080: b83c 8ebd 1936 043f 82fd bc3e 67f3 73be
00000090: 2056 1abf 0694 e7be 7d25 92be 2a9d 7bbe
000000a0: b35f 01be d16b a73e 0e92 d7be 7e9b 12bf
000000b0: a773 013f a9c8 a5be 3684 1fbe 072a ce3e
000000c0: 71f2 27be 9552 623e 3b90 033e b4a6 1ebe
000000d0: a563 973d e33d 743e 4d64 48be 5440 b33b
000000e0: 0f15 debe 673b 05bf 7c39 c6bc 93a4 b2bd
000000f0: de39 c73e 6503 c43e d464 e23e b454 5a3e
00000100: 6d36 813e 4e49 e9be d425 33be dfd4 98be
00000110: 6c9e c5be aaa3 bfbe 69c4 66be 6644 fe3e
00000120: 2301 c33e a5ca a83e 90d0 9d3e 3ebe eabe
00000130: 51cf cbbe 32ec ddbe 353d 89be 8c6e b03e
00000140: a3a2 aabe d005 113e 33db 6e3e 1640 b5be
00000150: aa08 aa3e 25ca 8b3e 275e 72be c57d 63be
00000160: ba0b f53e 7310 41be 456d 5dbe f581 a13e
00000170: c7c7 8e3e 4aa4 10be 3045 df3e 8943 923e
00000180: 2416 5d3e bdb2 a8bd 23c7 3d3e fec2 1cbe
00000190: 445e e33e 02bc f2be d8e5 aabe ccba 81be
000001a0: 1b3f d13e 0a23 e83e 10c5 27be 9cf6 373e
000001b0: a69a bbbe 194b b0be 515e 70be 2ef0 d23e
000001c0: 98b2 2c3f 0ab3 643e 6821 c53e ce96 eebd
000001d0: 9f0e 923e 3679 a03e 61c7 7fbe 3323 84be
000001e0: 297e c1be f531 133f 3483 8fbe 03b7 543e
000001f0: c3ad e0be 2213 bc3e 560a fdbe a877 ba3e
00000200: d132 2a3e 7f28 a4be e980 31bf 173d 6bbe
00000210: 9ef3 0a3e 2d1e e53e 240b d3be 1e50 abbe
00000220: e3f2 ad3e ada9 3ebe 9c1f 82be bfa4 8d3e
00000230: 4bf6 09bf b483 063f dbb9 69be 77f5 debe
00000240: 4941 95be b6b4 e53d 1f41 b0bd 575d 8fbd
00000250: 20fb 573e 41e8 ac3e 5a33 66bd cc79 89be
00000260: 31e6 9dbe f707 e3be 620c 91be caf3 643e
00000270: ebcb 223f 1990 553e ba4f 8fbe a8b4 0b3e
00000280: 2af2 e73d b2e1 c0be 6ef9 083f dd1a febd
00000290: 450b b13d d7ad ee3e 2f69 3bbc ccb6 113d
000002a0: 1cdf cbbe c402 0bbf 37f4 3a3e b52e c93e
000002b0: a2b3 193f 49d6 313f a515 c5be 2b45 18be
000002c0: 4835 0abf 6898 c03e c233 8c3e 7cd5 55be
000002d0: de51 033e b6e6 27be 0f95 63be 83a1 94be
000002e0: 2513 96be 2289 0b3f 0dd0 0bbd 0598 573e
000002f0: 6bd6 0d3f f397 1d3e 7825 d73e 9c27 d83e
00000300: a78c 7b3e a4fc 13bf f799 843e 835c a33e
00000310: 962c bd3e 4766 cd3e f0da 5c3e dab4 05be
00000320: 7ab3 e0be bea8 153e 8faa aebe 0d00 a33e
00000330: 203f 983e 514f 053f 50da 633e 6890 80be
00000340: 698b 1c3e acca 93bd 3cda ba3e d85f 7dbe
00000350: 4d80 803e 2458 d0be 50c8 3abe b9f8 92be
00000360: a211 20be df47 0a3b 7aeb 153f ce3f 633e
00000370: 4dc9 c4be 9c3d 263e 42bd cebe 3b49 1d3e
00000380: 41d6 19be 065f 6d3e 3df5 a5be 3044 773e
00000390: ed00 08be 4668 2e3b f31d 283e 75fe a13d
000003a0: f0fa 683d 6b39 92bd c5f2 3f3e f86f 4dbe
000003b0: 79b7 90bd 7d63 4bba b1ea 643c df22 02be
000003c0: a563 233e 0ba3 09be eef3 30be aa82 c53d
000003d0: 9356 cdbb bb8a 4dbe c99c 873e 7414 5e3e
000003e0: 8404 fb3d 59a5 2f3d 04d7 c03d db54 babe
000003f0: a3f4 46be 082c 0dbe c471 013e 6dce 6abe
0.17534746 0.5182836 0.3770413 -0.37316236 0.17778648 0.16262181 0.38460773 -0.28308946
-0.20141387 0.38124087 -0.3764454 0.31474406 0.45923287 -0.55712897 -0.11912815 -0.476598
-0.42898545 0.2635361 0.024319008 -0.29156208 0.15589681 0.26654455 -0.3446052 -0.28248745
0.037418783 -0.56342345 -0.27668297 0.23615803 -0.6860692 0.1383192 -0.34152743 -0.46359968
-0.06945175 0.51645046 0.3691216 -0.2382332 -0.60287666 -0.4523012 -0.28544226 -0.24571672
-0.12634163 0.32699445 -0.42103618 -0.5726851 0.50567096 -0.32379654 -0.15577778 0.4026644
-0.16401078 0.22101815 0.12847988 -0.1549328 0.073920526 0.23851733 -0.19569512 0.005470315
-0.4337544 -0.52043766 -0.024197333 -0.08722796 0.38911337 0.3828384 0.4421755 0.21321374
0.25236836 -0.4556374 -0.17494899 -0.29849908 -0.3859743 -0.37429553 -0.22535862 0.4966156
0.38086805 0.32967106 0.30823183 -0.45848268 -0.39806607 -0.43344265 -0.2680451 0.3445934
-0.33327207 0.14162374 0.23325805 -0.35400456 0.33209735 0.27302662 -0.23668729 -0.22215946
0.4786051 -0.18853931 -0.21623714 0.31544462 0.27886793 -0.14125171 0.43607473 0.2856715
0.21590477 -0.082372166 0.18532996 -0.15308759 0.44407856 -0.47409064 -0.33378482 -0.25337827
0.40868458 0.45339233 -0.16383767 0.17965168 -0.36641425 -0.34432295 -0.23473479 0.41198868
0.6746001 0.22333923 0.3850205 -0.116498575 0.2852678 0.31342477 -0.24978401 -0.25808105
-0.37791565 0.57498103 -0.28029788 0.20772938 -0.4388257 0.36733347 -0.49421948 0.36419415
0.16620947 -0.32062146 -0.69337326 -0.22972523 0.13569495 0.44749585 -0.41219437 -0.33459562
0.3397437 -0.18619414 -0.2541474 0.27664754 -0.5389144 0.52544713 -0.22824804 -0.4354665
-0.2915137 0.112161085 -0.08606171 -0.07000225 0.2109189 0.33770946 -0.056201316 -0.26850736
-0.30839685 -0.44342014 -0.2832976 0.22358623 0.63592404 0.2085575 -0.27990514 0.13643134
0.11325486 -0.37672192 0.535056 -0.124074675 0.086447276 0.46617004 -0.011438652 0.03557472
-0.39818656 -0.54301095 0.18257223 0.39293447 0.6003972 0.694676 -0.38493076 -0.14870135
-0.5398755 0.37616277 0.27383238 -0.20882219 0.12824199 -0.16396603 -0.2222483 -0.29029474
-0.2931148 0.54506123 -0.03413396 0.21054085 0.554053 0.15389995 0.42020774 0.4221772
0.24565373 -0.57807374 0.25898716 0.31906518 0.3694808 0.40117094 0.21567893 -0.1305727
-0.4388693 0.14615151 -0.341145 0.31835976 0.2973566 0.5207415 0.22251248 -0.25110173
0.15287556 -0.07216391 0.36494625 -0.24743593 0.25097886 -0.40692246 -0.18240476 -0.28705385
-0.15631726 0.0021099967 0.58562434 0.22192308 -0.3843483 0.1623444 -0.40378767 0.15359966
-0.15023138 0.2318078 -0.32413664 0.24147105 -0.13281603 0.0026612445 0.16417675 0.07909862
0.056879938 -0.07139858 0.18744953 -0.20062244 -0.07066245 -0.00077586604 0.01397197 -0.12708615
0.1595598 -0.13441102 -0.17280552 0.09644063 -0.006266424 -0.20072453 0.26486805 0.2168749
0.12256721 0.042882297 0.09416011 -0.36392865 -0.19429259 -0.13786328 0.12641054 -0.22930308

classifier.bias f4 [100]
00000000: 1d33 a13d 70e1 54bb 27c6 883e d9d3 203e
00000010: 02a7 403e e49c 1e3e 34c1 9a3e b832 a4be
00000020: 6010 29bd 3915 08be 7330 f13c 67a4 27be
00000030: bb41 ebbd f050 21be 615c e4bd e0fd 68be
00000040: 4e6a 56bd 6213 7bbe 1bba b3bd d094 3ebe
00000050: fc33 913c 5068 34bc e997 24bd c781 37bd
00000060: f6b8 9bbe 9d5a 6bbe 8638 7cbe f05d 333c
00000070: 0682 c7bd 615f a9bd e69c 8dbe f60d 62be
00000080: 06c5 3fbe 1c7e 9738 1698 04be 0afa 24be
00000090: f193 a73b 97a9 18be 8019 edbb 5331 0cbe
000000a0: b914 e53c 6398 6ebe c61c 93bb 13db 05be
000000b0: f05b ddbc a8f5 85be d00e 49be 7335 98be
000000c0: 0a1e 6cbd 043b f8bd 18ec 8dbe ff46 e43b
000000d0: 8b1f 85be a4d1 45bb 7a24 483b bf2f 8fbe
000000e0: 1cd3 75be 21ce 0dbe f27b 8fbc c5cb 4cbe
000000f0: 0525 9cbe 3630 363d fe71 003d 1885 8fbe
00000100: e71a bbbc 4e86 1dbe c160 65be 1782 57be
00000110: c07e a7be f1d1 27be cfa3 8fbc cd0e 85be
00000120: c281 0d3d ce4f 37be c06d 4fbe 76e3 9dbe
00000130: 6148 903c d883 38bd 45d7 14be 181b 14be
00000140: 7065 38be b948 dabd c2c7 5cbe 6353 babd
00000150: 21ba b9bd e6c6 90bd 1d8e 81be 0655 c4bd
00000160: 7112 3ebe 343b 553b e5fa 743d ca81 2a3d
00000170: 98f7 89be 8a85 dcbc 09ae 19bd 0389 19be
00000180: f71a 983c e4af d7bd d527 893b fe9f dfbd
0.07871077 -0.0032483004 0.26713678 0.15705813 0.18813708 0.15489537 0.30225527 -0.32069945
-0.041275382 -0.13289346 0.029442048 -0.16371308 -0.114871465 -0.15753531 -0.111504324 -0.22753096
-0.052347474 -0.24519113 -0.08775731 -0.18611455 0.017724983 -0.011011198 -0.040183935 -0.0448015
-0.30414551 -0.22983785 -0.24630937 0.010947689 -0.09741597 -0.08270145 -0.27658767 -0.22075638
-0.18727502 7.223731e-05 -0.12948641 -0.16111007 0.0051140715 -0.14908443 -0.007235706 -0.1369069
0.027963983 -0.23300318 -0.004489514 -0.13071851 -0.027021378 -0.26163983 -0.19634557 -0.2972828
-0.057645835 -0.12120631 -0.27719188 0.006966471 -0.26000628 -0.003018477 0.003053932 -0.27966115
-0.24006313 -0.13848163 -0.017515156 -0.19999607 -0.30496994 0.04447957 0.03135871 -0.2803123
-0.022839976 -0.15383264 -0.2240019 -0.21045719 -0.3271389 -0.1638868 -0.017534165 -0.25987855
0.034547575 -0.17901537 -0.2025671 -0.308376 0.017612638 -0.04504761 -0.14535244 -0.1446346
-0.18007445 -0.10658402 -0.21560577 -0.09097936 -0.090687044 -0.07069187 -0.25303736 -0.095865294
-0.18561722 0.0032536509 0.059809584 0.041627683 -0.26946712 -0.026919145 -0.03751949 -0.14993672
0.018567545 -0.10531595 0.0041856566 -0.10919188
